…
ut_type":"stream","text":["(6394, 640, 128, 1)\n","Reshaped Input Data\n","(6394, 640, 128, 1)\n"],"name":"stdout"},{"output_type":"display_data","data":{"image/png":"…\n","text/plain":["<Figure size 432x288 with 2 Axes>"]},"metadata":{"tags":[],"needs_background":"light"}},{"output_type":"stream","text":["Discrimnator Summary\n","Model: \"sequential_6\"\n","_________________________________________________________________\n","Layer (type)                 Output Shape              Param #   \n","=================================================================\n","conv2d_6 (Conv2D)            (None, 320, 64, 64)       1664      \n","_________________________________________________________________\n","leaky_re_lu_6 (LeakyReLU)    (None, 320, 64, 64)       0         \n","_________________________________________________________________\n","dropout_7 (Dropout)          (None, 320, 64, 64)       0         \n","_________________________________________________________________\n","conv2d_7 (Conv2D)            (None, 160, 32, 128)      204928    \n","_________________________________________________________________\n","leaky_re_lu_7 (LeakyReLU)    (None, 160, 32, 128)      0         \n","_________________________________________________________________\n","dropout_8 (Dropout)          (None, 160, 32, 128)      0         \n","_________________________________________________________________\n","conv2d_8 (Conv2D)            (None, 80, 16, 256)       819456    \n","_________________________________________________________________\n","leaky_re_lu_8 (LeakyReLU)    (None, 80, 16, 256)       0         \n","_________________________________________________________________\n","dropout_9 (Dropout)          (None, 80, 16, 256)       0         \n","_________________________________________________________________\n","conv2d_9 (Conv2D)            (None, 40, 8, 512)        3277312   \n","_________________________________________________________________\n","leaky_re_lu_9 (LeakyReLU)    (None, 40, 8, 512)        0         \n","_________________________________________________________________\n","dropout_10 (Dropout)         (None, 40, 8, 512)        0         \n","_________________________________________________________________\n","conv2d_10 (Conv2D)           (None, 20, 4, 1024)       13108224  \n","_________________________________________________________________\n","leaky_re_lu_10 (LeakyReLU)   (None, 20, 4, 1024)       0         \n","_________________________________________________________________\n","dropout_11 (Dropout)         (None, 20, 4, 1024)       0         \n","_________________________________________________________________\n","flatten_2 (Flatten)          (None, 81920)             0         \n","_________________________________________________________________\n","dense_3 (Dense)              (None, 1)                 81921     \n","_________________________________________________________________\n","activation_8 (Activation)    (None, 1)                 0         \n","=================================================================\n","Total params: 17,493,505\n","Trainable params: 17,493,505\n","Non-trainable params: 0\n","_________________________________________________________________\n","Generator Summary\n","Model: \"sequential_8\"\n","_________________________________________________________________\n","Layer (type)                 Output Shape              Param #   \n","=================================================================\n","dense_4 (Dense)              (None, 327680)            21299200  \n","_________________________________________________________________\n","batch_normalization_6 (Batch (None, 327680)            1310720   \n","_________________________________________________________________\n","activation_9 (Activation)    (None, 327680)            0         \n","_________________________________________________________________\n","reshape_2 (Reshape)          (None, 40, 8, 1024)       0         \n","_________________________________________________________________\n","dropout_12 (Dropout)         (None, 40, 8, 1024)       0         \n","_________________________________________________________________\n","up_sampling2d_5 (UpSampling2 (None, 80, 16, 1024)      0         \n","_________________________________________________________________\n","conv2d_transpose_6 (Conv2DTr (None, 80, 16, 512)       13107712  \n","_________________________________________________________________\n","batch_normalization_7 (Batch (None, 80, 16, 512)       2048      \n","_________________________________________________________________\n","activation_10 (Activation)   (None, 80, 16, 512)       0         \n","_________________________________________________________________\n","up_sampling2d_6 (UpSampling2 (None, 160, 32, 512)      0         \n","_________________________________________________________________\n","conv2d_transpose_7 (Conv2DTr (None, 160, 32, 256)      3277056   \n","_________________________________________________________________\n","batch_normalization_8 (Batch (None, 160, 32, 256)      1024      \n","_________________________________________________________________\n","activation_11 (Activation)   (None, 160, 32, 256)      0         \n","_________________________________________________________________\n","up_sampling2d_7 (UpSampling2 (None, 320, 64, 256)      0         \n","_________________________________________________________________\n","conv2d_transpose_8 (Conv2DTr (None, 320, 64, 128)      819328    \n","_________________________________________________________________\n","batch_normalization_9 (Batch (None, 320, 64, 128)      512       \n","_________________________________________________________________\n","activation_12 (Activation)   (None, 320, 64, 128)      0         \n","_________________________________________________________________\n","up_sampling2d_8 (UpSampling2 (None, 640, 128, 128)     0         \n","_________________________________________________________________\n","conv2d_transpose_9 (Conv2DTr (None, 640, 128, 64)      204864    \n","_________________________________________________________________\n","batch_normalization_10 (Batc (None, 640, 128, 64)      256       \n","_________________________________________________________________\n","activation_13 (Activation)   (None, 640, 128, 64)      0         \n","_________________________________________________________________\n","conv2d_transpose_10 (Conv2DT (None, 640, 128, 1)       1601      \n","_________________________________________________________________\n","activation_14 (Activation)   (None, 640, 128, 1)       0         \n","=================================================================\n","Total params: 40,024,321\n","Trainable params: 39,367,041\n","Non-trainable params: 657,280\n","_________________________________________________________________\n","Shape of input training data\n","(32, 640, 128, 1)\n"],"name":"stdout"},{"output_type":"display_data","data":{"image/png":"…\n","text/plain":["<Figure
…
